my_model.pt (torch, 752655 bytes, 8 tensors)

weight f4 [16, 3, 5, 5]
0	0x3d808976	0.062762186
1	0xbd41bb01	-0.04729748
2	0xbc9a3921	-0.01882607
3	0x3d6ba1b4	0.05752726
4	0xbdd818c3	-0.10551598
5	0x3d9412e4	0.072301656
6	0xbca5190f	-0.02015355
7	0x3d7ecd38	0.06220743
8	0x3c9a4171	0.018830033
9	0xbc3cef79	-0.011531704
10	0x3d0e2ada	0.034708835
11	0x3c148b25	0.009066378
12	0x3d395fe6	0.04525747
13	0xbd2ec470	-0.042667806
14	0xbbcfa5c6	-0.0063369004
15	0xbbf8a3c0	-0.00758788
16	0x3ca2ac6f	0.019857613
17	0x3b164c23	0.0022933565
18	0x3dd32171	0.10309113
19	0x3d1943ab	0.03741805
20	0xbd24e2c1	-0.040255312
21	0xbd8949c0	-0.0670352
22	0xbc8facd9	-0.017538475
23	0xbd47a0cb	-0.04873733
24	0xbd15d734	-0.036582187
25	0x3c106d36	0.0088151
26	0x3d948589	0.07252032
27	0x3d87ef6b	0.06637462
28	0xbde037b5	-0.10948125
29	0x3d9947a8	0.074843705
30	0x3d10c53c	0.035344347
31	0x3de7bd67	0.113154225
32	0x3da34bf3	0.079734705
33	0xbdd19032	-0.10232581
34	0xbddb4ed9	-0.10708398
35	0xbd58e1e2	-0.052949794
36	0x3dd6a74c	0.10481128
37	0xbc839f90	-0.016067296
38	0x3d545eee	0.051848345
39	0xbd52d7f3	-0.051475476
40	0x3dedfd4e	0.1162058
41	0xbd3af7a5	-0.04564633
42	0x3db731f8	0.08945078
43	0x3b6d5e57	0.003621956
44	0xbd72c5ab	-0.059270542
45	0x3d7f1446	0.062275194
46	0xbd6f5b5d	-0.05843674
47	0x3d12f394	0.035876825
48	0xbd040225	-0.032228608
49	0xbc486b91	-0.012232677
50	0xbddcaf6c	-0.107756466
51	0xbd5276d6	-0.051382862
52	0x3d87bce8	0.06627828
53	0xbcca1a79	-0.024670826
54	0x3df23aaf	0.11827599
55	0x3dc3cdfb	0.09560772
56	0xbaebe978	-0.0017998656
57	0xbd96a630	-0.073559165
58	0x3d95ebaf	0.07320344
59	0x3d1deb77	0.038554635
60	0xbd9358fa	-0.07194705
61	0x3da091b3	0.0784029
62	0x3d96137a	0.073279336
63	0x3dd6bf97	0.104857616
64	0xbd800b1f	-0.06252121
65	0xbc843ee7	-0.016143275
66	0x3a7ecb06	0.0009719584
67	0x3ca1d250	0.019753605
68	0xbdaecafd	-0.08534811
69	0xbda493b0	-0.08035982
70	0x3d869f51	0.06573356
71	0xbcc63650	-0.02419582
72	0x3d6ef9ec	0.058343813
73	0x3bfb55a2	0.0076701203
74	0x3d1cf857	0.038322773
75	0x3cd40c2b	0.025884708
76	0x3d2f2dc7	0.042768266
77	0x3d6e36e9	0.058157835
78	0xbdd8e325	-0.105901994
79	0x3d72ce7a	0.059278943
80	0xbda6f3bd	-0.08151958
81	0xbdb15b2a	-0.08659966
82	0x3bfd1167	0.007723022
83	0xbc997135	-0.01873074
84	0x3d8d14ec	0.06888756
85	0xbd8b8ed5	-0.068143524
86	0xbdd1ad9d	-0.10238192
87	0x3dad13eb	0.08451065
88	0xbc859db2	-0.016310547
89	0x3d86f8d6	0.065904304
90	0x3d0fa7f1	0.03507227
91	0xbdb19c05	-0.086723365
92	0x3cbff020	0.02342993
93	0x3ce73bc5	0.028226743
94	0xbd9ce64f	-0.076611154
95	0xbd6a788f	-0.05724388
96	0x3d1b9637	0.037985053
97	0x3ca5ad74	0.02022431
98	0xbd492e9a	-0.04911671
99	0xbd0e1dc6	-0.034696363
100	0x3dd9b415	0.10630051
101	0xbca88322	-0.020570341
102	0x3d87373c	0.06602332
103	0x3d510b4a	0.051036157
104	0xbd967d98	-0.07348174
105	0xbdc98355	-0.09839503
106	0x3de422f3	0.111394785
107	0x3bdccd58	0.006738346
108	0x3da40bfc	0.08010098
109	0x3cccd436	0.025003534
110	0x3d1300a7	0.035889294
111	0x3db152c2	0.08658363
112	0x3de14017	0.10998552
113	0xbd9b3e7d	-0.07580278
114	0x3c7c5767	0.015401698
115	0x3dac3088	0.08407694
116	0x3dab33cc	0.08359489
117	0x3d9370b3	0.0719923
118	0xbdaa1b44	-0.08305982
119	0xbda8d51b	-0.08243772
120	0xbd941517	-0.07230585
121	0x3c578161	0.013153405
122	0x3deadd52	0.11467995
123	0xbd95505f	-0.0729072
124	0x3d7d1b78	0.061793774
125	0xbd81be86	-0.063351676
126	0xbddcbac2	-0.10777809
127	0xbcc18a14	-0.023625411
128	0x3d8a5f1b	0.06756421
129	0x3dddea06	0.10835652
130	0xbd933bb4	-0.07189122
131	0x3cd1cc96	0.02561025
132	0x3dcd7c41	0.10033465
133	0x3d9ea673	0.077465914
134	0x3d95933c	0.07303473
135	0x3da54047	0.080689006
136	0x3d9646a1	0.0733769
137	0x3cf84eac	0.030310951
138	0xbda009c7	-0.07814365
139	0xbdc49f5a	-0.096007064
140	0xbd61dadc	-0.05514036
141	0xbc5d675a	-0.01351341
142	0xbd907535	-0.070536055
143	0x3d2f0fee	0.0427398
144	0x3d15331b	0.03642569
145	0xbceac8d9	-0.028660225
146	0x3d2fff3b	0.042968016
147	0x3d171f0c	0.036894843
148	0x3d906482	0.0705042
149	0x3d9f9d90	0.077937245
150	0xbd27f6ad	-0.041006733
151	0x3de2e919	0.11079616
152	0xbc806612	-0.01567367
153	0xbbd7aa5a	-0.006581587
154	0xbde4fd12	-0.11181082
155	0xbd9c84a6	-0.07642488
156	0xbd8ec802	-0.06971742
157	0xbd53e13e	-0.05172848
158	0x3da2fbd0	0.07958186
159	0xbd25da13	-0.040491175
160	0xbdb50317	-0.0883848
161	0x3d2c866d	0.042120386
162	0x3d0d9cf8	0.034573525
163	0x3d942e25	0.07235364
164	0xbd7f7f8b	-0.062377494
165	0x3cbd646f	0.02311918
166	0xbd34fdb5	-0.044187266
167	0xbce8b105	-0.028404722
168	0xbdc1864e	-0.09449445
169	0xbd6216a8	-0.055197388
170	0xbd18c019	-0.037292574
171	0x3d42270b	0.047400516
172	0x3c9a8cbc	0.018865936
173	0x3cd5b5a7	0.026087595
174	0x3de6caf0	0.11269176
175	0x3de29be5	0.11064891
176	0x3d9d2d1f	0.07674622
177	0x3ab2759e	0.0013615375
178	0xbda8ef58	-0.08248776
179	0x3db30cba	0.08742662
180	0xbcfdb64f	-0.03097072
181	0xbc3dce7f	-0.011584877
182	0xbdd0807b	-0.10180756
183	0xbccf61b6	-0.025315147
184	0xbd9e29e2	-0.07722832
185	0x3dd50853	0.10401978
186	0xbdd12655	-0.102123894
187	0xbdbd39b6	-0.09239523
188	0xbbd00a7b	-0.0063489056
189	0xbd853b01	-0.06505395
190	0x3d216b4f	0.039408978
191	0xbd3ed347	-0.04658821
192	0xbd6830a3	-0.05668701
193	0x3b857e52	0.0040738964
194	0x3da5f110	0.0810262
195	0xbdaa46a6	-0.08314256
196	0x3d560cbd	0.052258242
197	0x3d93617f	0.0719633
198	0x3de25b1e	0.110525355
199	0xbdaabe91	-0.08337129
200	0x3cd5cf96	0.026099961
201	0xbdb2ede9	-0.08736784
202	0x3dc533d4	0.09629026
203	0xbd420d55	-0.047375996
204	0x3d88b9c5	0.06676058
205	0x3ab2ebb9	0.0013650573
206	0xbc37d1c4	-0.011219446
207	0xbbc443bb	-0.0059895194
208	0x3c8c77bd	0.01714694
209	0x3d53c5e5	0.0517024
210	0x3c86cb50	0.016454369
211	0x3d06f669	0.03294984
212	0xbdd98f92	-0.10623087
213	0x3da75e96	0.08172338
214	0x3dc8df21	0.098081835
215	0x3dbf9d5e	0.09356187
216	0x3daa7a4c	0.083241075
217	0xbdafa01c	-0.0857546
218	0xbd39541c	-0.04524623
219	0x3dcb501e	0.099273905
220	0xbdb80147	-0.08984619
221	0x3dd28fd1	0.10281337
222	0xbdbe7da3	-0.09301307
223	0xbdab822a	-0.08374436
224	0x3d5cde0c	0.053922698
225	0xbdab0ace	-0.0835167
226	0xbcde6b49	-0.027150767
227	0x3daab81e	0.08335899
228	0x3dba6234	0.09100762
229	0x3de4117c	0.111361474
230	0xbcb2e472	-0.021837447
231	0xbdb90ec6	-0.09036021
232	0x3de7a4ca	0.11310728
233	0xbcccee38	-0.025015935
234	0xbd445634	-0.047933772
235	0x3cf33d06	0.029692184
236	0xbda679f9	-0.08128733
237	0x3d9a2b5c	0.075278014
238	0x3d933f93	0.0718986
239	0xbdbcba98	-0.092152774
240	0xbdc3779c	-0.09544298
241	0xbc3070b4	-0.010769058
242	0x3d43e4a9	0.04782549
243	0xbb82318d	-0.003973192
244	0xbd72594f	-0.059167203
245	0x3b001772	0.0019545224
246	0xbddfce20	-0.10927987
247	0xbda89ff6	-0.08233635
248	0xbd9ed1e6	-0.07754879
249	0x3dc16ac4	0.09444192
250	0x3dcf51fd	0.1012306
251	0xbd23857f	-0.039922234
252	0x3b9480a2	0.004531936
253	0x3d510a3c	0.05103515
254	0x3c825331	0.01590881
255	0xbd665931	-0.056237403

bias f4 [16]
0	0x3d2ce827	0.042213585
1	0x3ddeddcc	0.10882148
2	0x3d60e5ea	0.054906763
3	0x3d12e564	0.035863295
4	0x3cf6f0f4	0.030144192
5	0xbdde2bfe	-0.108482346
6	0xbd2c279d	-0.042029966
7	0x3c828a85	0.015935192
8	0xbda1c2e9	-0.07898504
9	0xbdc7cee4	-0.09756258
10	0x3d9e9b91	0.07744516
11	0x3d10df8c	0.03536944
12	0xbdbe6117	-0.09295862
13	0x3be7d747	0.0070752236
14	0x3d895122	0.06704928
15	0x3d861b2e	0.06548153

weight f4 [32, 16, 5, 5]
0	0x3d3866a2	0.045019753
1	0xbca45c59	-0.020063566
2	0x3cbb62c0	0.022874236
3	0xbd226f6f	-0.039657053
4	0xbba8d2ec	-0.005152097
5	0xbd062098	-0.032745928
6	0xbc25c0d5	-0.0101167755
7	0x3ceab566	0.02865095
8	0x3cd3cf81	0.025855782
9	0xbcd02550	-0.025408417
10	0xbc5dedaa	-0.013545433
11	0xbc301ac8	-0.010748573
12	0xbc9d5151	-0.019203814
13	0xbcdadd64	-0.026716895
14	0x3d19840c	0.037479445
15	0x3d08207d	0.03323411
16	0x3d272b0c	0.040812537
17	0xbce59ed0	-0.02802983
18	0x3d16d527	0.03682437
19	0xbc6eba1f	-0.014570742
20	0xbc59a109	-0.013283023
21	0xbc7080be	-0.014679132
22	0xbb55c55e	-0.003261886
23	0xbcb4c377	-0.022065861
24	0x3bf0b752	0.0073460722
25	0xbd050bd6	-0.03248199
26	0x3cabe315	0.020982305
27	0xbd28dbcb	-0.041225236
28	0xbc8e0ce2	-0.017340127
29	0xbd0bbf46	-0.03411796
30	0x3d07d33c	0.033160433
31	0x3d0d790d	0.03453927
32	0xbd2095ad	-0.039205242
33	0xbcd87313	-0.02642206
34	0x3d3a8b89	0.045543227
35	0x3c62f1dd	0.01385161
36	0x3d0c862b	0.03430764
37	0xbd1bc7b0	-0.038032234
38	0x3cbe70ca	0.023247141
39	0x3d05db6b	0.032679956
40	0xbc4c2b41	-0.012461484
41	0xbb32d516	-0.0027287654
42	0x3d156bc0	0.03647971
43	0x3c6895d3	0.014195877
44	0x3c775fbe	0.01509851
45	0xba6a0b68	-0.0008928091
46	0xbcafe28c	-0.02147033
47	0xbcfb9ae1	-0.0307135
48	0x3d4e1423	0.050312173
49	0xbb4f0249	-0.0031587055
50	0x3d32630f	0.0435515
51	0x3d23311e	0.039841764
52	0xbcdfdae8	-0.027326062
53	0x3b2a4946	0.0025983616
54	0xbc5da99c	-0.013529208
55	0xbad76742	-0.0016433971
56	0x3d030373	0.03198571
57	0x3cdcd7e4	0.026958413
58	0xbceb5adb	-0.028729847
59	0xbcce5422	-0.025186602
60	0xbd15ab43	-0.03654028
61	0xbd31eea3	-0.043440472
62	0x3d037cc5	0.03210141
63	0xbd003570	-0.031300962
64	0xb7bc35b1	-2.2436348e-05
65	0xba47da73	-0.0007623799
66	0x3bf82de4	0.00757383
67	0xbb3f72e2	-0.0029212763
68	0x3ccf2a5f	0.025288759
69	0x3bc57312	0.0060256803
70	0x3d11858c	0.03552775
71	0x3c2c9cf7	0.01053547
72	0xb9b58a07	-0.0003462585
73	0x3bd134bb	0.00638446
74	0x3d04c9b6	0.03241893
75	0x3c122394	0.008919615
76	0x3d155179	0.03645465
77	0xbb6d670e	-0.0036224755
78	0x3a4eeaf0	0.0007893285
79	0x3d29a61c	0.04141818
80	0xbd327974	-0.043572858
81	0x3c0b111a	0.008487964
82	0x3d49a970	0.049233854
83	0xbcb078ee	-0.021542039
84	0xbbbcf976	-0.0057670427
85	0x3a4f54f5	0.0007909083
86	0x3ca66bd7	0.020315094
87	0x3cb8c311	0.022553952
88	0x3c787425	0.01516441
89	0x3cbea132	0.023270223
90	0xbc902a3d	-0.017598266
91	0x3cca9d57	0.024733229
92	0xbc49047c	-0.012269136
93	0x3d100298	0.035158724
94	0xbc32eb69	-0.010920384
95	0xbd2013b0	-0.039081275
96	0x3b9fb8a0	0.004874304
97	0x3cf1e8c9	0.029529946
98	0xb9ff6954	-0.00048715866
99	0x3b8a9e28	0.0042302795
100	0x3ad21929	0.0016029227
101	0x3cde3b1c	0.027127795
102	0x3aa3a904	0.0012486284
103	0xbd41c741	-0.047309164
104	0xbd14fed7	-0.036375847
105	0x3bd3fbf5	0.0064692446
106	0xbb86c8e9	-0.004113306
107	0x3d3a0047	0.04541042
108	0xbc7c46ad	-0.01539771
109	0x3d1136ab	0.035452526
110	0xbd1d9e6e	-0.03848117
111	0xbd42dc97	-0.047573652
112	0xbbe8c7cf	-0.007103897
113	0xbd10b0fa	-0.035325028
114	0xbc938193	-0.018006122
115	0x3c1d366c	0.009595495
116	0xbd2c42cc	-0.04205589
117	0x3d17c866	0.03705635
118	0xbcf475bf	-0.029841302
119	0x3d1e683a	0.038673617
120	0x3ca6627f	0.020310638
121	0xbbbb936b	-0.0057243607
122	0xbd280df2	-0.041028924
123	0x3c2497b4	0.0100459345
124	0xbcd938ff	-0.026516436
125	0x3d2e1651	0.04250175
126	0xbd27d496	-0.040974222
127	0xbc429221	-0.01187566
128	0xbcc55089	-0.024086254
129	0xbceb393f	-0.02871382
130	0xbcdd6221	-0.02702433
131	0xbb8a4c52	-0.004220524
132	0x3b9301a6	0.0044862805
133	0x3c20b0c0	0.0098077655
134	0x3ced3f9b	0.028960994
135	0xbcb18309	-0.021668928
136	0xbd0054a3	-0.031330716
137	0xbc202d61	-0.009776444
138	0x3d45ed91	0.048322264
139	0xbb31098a	-0.0027013742
140	0xbd33128b	-0.043718856
141	0x3d1d2c02	0.038372047
142	0x3c4cdcce	0.012503816
143	0x3c20beb1	0.009811089
144	0x3c23097d	0.009950993
145	0x3d07821b	0.033083063
146	0xbcc1bc2e	-0.023649301
147	0x3d168404	0.036746994
148	0x3d49fec7	0.04931524
149	0xbc19530c	-0.009358179
150	0x3d07178e	0.032981448
151	0x3ce54adb	0.027989795
152	0x3d406102	0.046967514
153	0xbc542011	-0.012947098
154	0xbcf58eb2	-0.029975269
155	0xbc76f5ae	-0.015073223
156	0xbd0bd942	-0.03414274
157	0x3b0e8eb9	0.002175255
158	0x3d38a5ff	0.04508018
159	0x3d42f968	0.047601134
160	0x3d2a6526	0.04160037
161	0x3ba57fee	0.005050651
162	0x39adae15	0.00033126833
163	0x3cfdd8e6	0.030987214
164	0x3cdc5382	0.026895288
165	0xba8fb521	-0.0010964015
166	0xbc4d05ce	-0.012513591
167	0x3c9bda74	0.019025065
168	0xbb5413bc	-0.0032360395
169	0xbd1c6152	-0.03817875
170	0xbca0d233	-0.01963148
171	0x3d28879f	0.041144963
172	0x3d27efc7	0.041000154
173	0xbc99b7fa	-0.018764485
174	0xbc61a89f	-0.013773113
175	0xbce3daf2	-0.027814362
176	0xbca10d9c	-0.01965981
177	0x3d2bfc5a	0.041988708
178	0xbd3bb7c9	-0.045829568
179	0x3cb444ac	0.022005402
180	0xbd43c565	-0.047795672
181	0xbcdfb9d4	-0.02731029
182	0xbc5887b4	-0.013215948
183	0x3a11b018	0.0005557551
184	0xbc3375f0	-0.010953411
185	0xbcc8fa50	-0.02453342
186	0xbcd0de3a	-0.02549659
187	0xbd09c143	-0.033631574
188	0xbd199936	-0.03749963
189	0xbd0568b2	-0.03257055
190	0x3d3e174b	0.046408933
191	0xbcd994f8	-0.026560292
192	0xbd38e0e5	-0.04513635
193	0x3cff7ee9	0.031188445
194	0x3c877cb5	0.016538957
195	0x3d05c04e	0.0326541
196	0xbd59e0ba	-0.05319283
197	0xbd52be77	-0.051451173
198	0xbd1da96d	-0.038491655
199	0xbced70e4	-0.028984495
200	0xb89f8717	-7.606873e-05
201	0x3cb79579	0.022410141
202	0x3cfa9197	0.030587
203	0xbd217f33	-0.039427947
204	0x3cc04627	0.023470951
205	0xbcf2513b	-0.02957975
206	0x3c4582fd	0.012055156
207	0x3c8aa38f	0.016923694
208	0x3c3c4e60	0.011493295
209	0x3cadae27	0.021201206
210	0xbb798e59	-0.003807923
211	0x3d0612f2	0.03273291
212	0x3c3a8f01	0.011386634
213	0x3d41b2da	0.047289707
214	0x3c6b76e3	0.0143716065
215	0xbce66ae9	-0.02812715
216	0x3cff8147	0.031189574
217	0x3b2c2753	0.0026268556
218	0x3d4b40d9	0.04962239
219	0xbb09ab12	-0.0021006507
220	0x3d42250e	0.04739862
221	0xbcf90200	-0.030396461
222	0x3ccd1a91	0.025037082
223	0xbd13a845	-0.036049146
224	0x3d1ad7e3	0.037803542
225	0x3bf9a359	0.0076183495
226	0x3ce05121	0.027382435
227	0xbd27548a	-0.040852107
228	0xbd3ce76d	-0.046119142
229	0x3cc1c305	0.023652563
230	0xbcc6157e	-0.02418017
231	0x3c96c385	0.018403778
232	0xbcf8e0f7	-0.03038071
233	0xbc440c62	-0.011965843
234	0x3a72edf4	0.0009267025
235	0x3cda2918	0.026630923
236	0x3cf367ec	0.02971264
237	0xbba9b85d	-0.0051794485
238	0xbc4eb505	-0.012616401
239	0xbad9e4d2	-0.001662398
240	0x3cc804f0	0.024416417
241	0xbd2daa71	-0.042398874
242	0xbc75adb9	-0.014995032
243	0xbd480804	-0.04883577
244	0x3bd95161	0.0066320156
245	0xbc1e5961	-0.009664864
246	0x3cdae56e	0.026720729
247	0x3d31f8d4	0.04345019
248	0xbd2a4032	-0.041565128
249	0xbc990f67	-0.018684102
250	0xbc0f388a	-0.008741507
251	0xba27ac7a	-0.00063962454
252	0xbc30a905	-0.010782485
253	0xbcfa6b1a	-0.030568648
254	0xbc967242	-0.01836503
255	0xbb0b9143	-0.00212963

bias f4 [32]
0	0xbc1742ad	-0.009232205
1	0xbca61fc6	-0.020278823
2	0x39927935	0.00027937596
3	0xbd023bd2	-0.03179533
4	0x3d121a8c	0.03566985
5	0x3d2955d3	0.041341614
6	0x3c9ed2f2	0.019387696
7	0xbb374f61	-0.0027970897
8	0x3cde8004	0.027160652
9	0x3ca8f6d7	0.020625515
10	0xbd3d2ac3	-0.04618336
11	0x3cc45a62	0.02396888
12	0xbb9d7c78	-0.0048060976
13	0xbcaf2b27	-0.021382881
14	0xbbe586ce	-0.0070045954
15	0xbc7a7f2f	-0.015289112
16	0x3ce53b17	0.027982278
17	0x3d414446	0.04718425
18	0xbc1a2278	-0.009407632
19	0xbcd2ec8d	-0.025747562
20	0x3c8f9877	0.017528756
21	0x3d06b38f	0.032886084
22	0xbd190d39	-0.037366126
23	0x3c1995cc	0.009374093
24	0x3bb0560f	0.0053813527
25	0xbd52348b	-0.05131964
26	0x3c99b8c5	0.018764863
27	0x3d0f3080	0.034958363
28	0xbd0f90dd	-0.03505026
29	0xbd422f28	-0.047408253
30	0x3b436a20	0.0029817894
31	0xbb3c420b	-0.0028725888

weight f4 [32, 5408]
0	0x3b0b44b2	0.0021250662
1	0x3a8d67ff	0.001078844
2	0xbc2e9893	-0.010656494
3	0x3c0aa3d2	0.008461909
4	0x3c014387	0.007889635
5	0xbc42f71a	-0.011899734
6	0xbc0896de	-0.008336751
7	0xbc3c4942	-0.011492075
8	0x3bb57d4c	0.005538618
9	0xbb18e229	-0.0023328161
10	0xbb87470c	-0.0041283425
11	0x3becccfa	0.0072265835
12	0x3b6ef102	0.003645957
13	0x3c1eec19	0.009699845
14	0xbc72b00b	-0.01481248
15	0xbbf89410	-0.00758601
16	0xbc519092	-0.012790816
17	0x3ba1bfbc	0.0049361866
18	0x3b159100	0.0022822022
19	0xbb404641	-0.002933875
20	0x3babea67	0.005246449
21	0x3bb27cc8	0.005447004
22	0xbc664e30	-0.014056727
23	0xbc21c9a8	-0.009874739
24	0x3be77d94	0.0070645306
25	0x3c4ac833	0.012376833
26	0xbc1d6b52	-0.009608107
27	0xbbe46ce2	-0.0069709877
28	0xbbdd0866	-0.006745386
29	0x3c0c7fdd	0.008575407
30	0x3b9c3970	0.0047675893
31	0xbc0cbceb	-0.008589963
32	0x3bed7d9e	0.0072476408
33	0xbc42e650	-0.011895731
34	0xbbd0a55b	-0.006367368
35	0xbb6f56bf	-0.003652021
36	0x3a870b0b	0.0010302974
37	0x3c16bded	0.009200555
38	0x3c04d36e	0.008107049
39	0xbc27bb73	-0.0102375625
40	0x39bb309c	0.00035703636
41	0xbc26ff4a	-0.010192702
42	0xbb40f5b9	-0.0029443337
43	0x3baa2c67	0.0051932815
44	0x3c46311a	0.012096668
45	0x3c00fbfd	0.007872579
46	0xba6a8524	-0.0008946231
47	0x3b291626	0.0025800555
48	0x3bde6a33	0.0067875623
49	0xbc3d03f6	-0.011536589
50	0x3c09c75c	0.008409347
51	0x3beb5416	0.0071816547
52	0x3c0a2ace	0.008433057
53	0xbc3e894f	-0.011629417
54	0x3c5e8ae7	0.013582922
55	0x3c280672	0.010255443
56	0xbad721c4	-0.0016413261
57	0xbc42d314	-0.011891145
58	0x3c2b3918	0.010450624
59	0x3c1ce579	0.009576195
60	0xbbf066bc	-0.0073364656
61	0x3c2f5fbe	0.010703979
62	0xba53c49a	-0.0008078307
63	0xb9ee6d4f	-0.0004547634
64	0x3b58490f	0.003300253
65	0x3a4dfc9b	0.00078577705
66	0xbc2ef3a0	-0.010678202
67	0x3bfa2517	0.007633816
68	0x3bda7d33	0.006667757
69	0xbc5e1fa3	-0.0135573475
70	0x3bd83716	0.0065983636
71	0xbbdc5c98	-0.006724905
72	0x3afe3459	0.0019394263
73	0xba4a23a6	-0.00077110005
74	0xbb3addfe	-0.0028513665
75	0x3b87d147	0.004144821
76	0x3b24f975	0.0025173102
77	0x3b7edf66	0.003889048
78	0x3bd9b71d	0.0066441433
79	0xbc2ad176	-0.010425916
80	0x3c579773	0.013158667
81	0x3b68cc69	0.0035522229
82	0xbb3de265	-0.0028974053
83	0xbb815fda	-0.003948194
84	0xbb615d50	-0.0034387894
85	0xbc03fd9a	-0.008056069
86	0xb9f76199	-0.00047184227
87	0xbc4abd4c	-0.012374233
88	0xbb59d08c	-0.0033235876
89	0x3ac9ecee	0.0015405694
90	0x3c49c11f	0.01231411
91	0x3c24346e	0.010022266
92	0x3c1b0dd4	0.009463746
93	0xbc275709	-0.010213622
94	0xbb7cbb0a	-0.0038563632
95	0x3afd5c45	0.0019329867
96	0x3c39148a	0.011296401
97	0xbb4b8160	-0.0031052455
98	0xbc3f1f45	-0.01166517
99	0x3c70b067	0.014690495
100	0x3b97a907	0.004628304
101	0x3a6b6175	0.0008979061
102	0x3a524978	0.0008021812
103	0x3b118e74	0.0022210153
104	0x3c5bbecd	0.01341219
105	0x3babc9b3	0.0052425503
106	0xbb6ad6f9	-0.00358337
107	0x3c4bfd71	0.012450562
108	0xbaf262af	-0.0018492545
109	0xbc4352bc	-0.011921581
110	0xbb3620e2	-0.0027790596
111	0x3c1fb22d	0.00974707
112	0x3b9cf560	0.004789993
113	0xbbfebfea	-0.007774343
114	0x3bf6c477	0.0075307447
115	0xbc4f948d	-0.012669695
116	0xbc144aea	-0.009051064
117	0xbc2dd72a	-0.010610381
118	0xbb9e298a	-0.004826729
119	0x3c4aedef	0.012385829
120	0x3bd137f3	0.0063848435
121	0xbc2fce80	-0.010730386
122	0xbb13d56a	-0.0022557625
123	0x3c4a7881	0.012357832
124	0x3a5099a4	0.00079574645
125	0xbaab8abf	-0.0013087614
126	0xbb62d19a	-0.0034609796
127	0xbc509c6d	-0.012732607
128	0x3bc0c62b	0.0058829985
129	0x3c5e4c87	0.01356805
130	0x3c310daf	0.010806485
131	0x3be0c628	0.0068595596
132	0x3ba330a1	0.0049801623
133	0x3c2c4f20	0.010516912
134	0x3a0eb027	0.0005443119
135	0xbb80e32d	-0.0039333315
136	0xbc12936c	-0.008946281
137	0x3c58c906	0.0132315215
138	0x3b9c765f	0.004774853
139	0xbc13a675	-0.009011854
140	0x3b8e49b9	0.0043422845
141	0x3b20213d	0.0024433874
142	0xba9ec920	-0.0012114383
143	0xbc62ef18	-0.01385095
144	0xbba40f8b	-0.0050067357
145	0xbc462a26	-0.01209501
146	0x3b199f07	0.0023440735
147	0x3a87a88d	0.0010349915
148	0xbc0a97b8	-0.008459024
149	0x3b436fa1	0.0029821175
150	0x3bffff9e	0.0078124544
151	0xbc1e96d8	-0.009679519
152	0xbc0709b6	-0.008242061
153	0x3a826b2d	0.0009950154
154	0x3c3283e2	0.010895701
155	0x3bbc15ec	0.005739918
156	0x3a3f586f	0.00072992494
157	0x3c3e8f23	0.011630806
158	0xb8a58cfd	-7.894074e-05
159	0x3c55c0a3	0.013046416
160	0xbc26036f	-0.010132655
161	0xbc080ff6	-0.008304587
162	0x3b3e3f97	0.0029029602
163	0x3bc39934	0.005969191
164	0xbc4810fb	-0.01221108
165	0xbaa8b01b	-0.0012869866
166	0x3c2999cf	0.010351612
167	0xbb38dc49	-0.0028207472
168	0x3c2e6893	0.01064505
169	0x39742480	0.0002328325
170	0xbc2da190	-0.0105976015
171	0x3b33ebd8	0.0027453806
172	0x3b59a608	0.0033210535
173	0x3bc2accc	0.005941009
174	0xbbdc4ee4	-0.0067232717
175	0xbbbf2cf8	-0.005834218
176	0x3bed9fe0	0.0072517246
177	0x3c02f202	0.0079922695
178	0x3c178aa4	0.009249363
179	0xbc1de3e7	-0.009636856
180	0xbbc1782e	-0.005904219
181	0x3b9d13c4	0.004793616
182	0x3a5c1350	0.0008395212
183	0xbb9fd96a	-0.0048782127
184	0x3af8a9a8	0.001897146
185	0x3c51d5f6	0.01280736
186	0xbb091694	-0.0020917999
187	0x3ba1456c	0.004921606
188	0x3bb199e4	0.0054199565
189	0x3c367852	0.011137085
190	0x3bcb2fc0	0.0062007606
191	0x3c49f756	0.012327036
192	0x3b9520ec	0.0045510437
193	0x3c4bcde6	0.012439227
194	0xba9d7b78	-0.0012014946
195	0x3a5aa540	0.0008340664
196	0xba83d1b0	-0.0010056999
197	0x3bbac8f8	0.005700227
198	0xbc3eb90e	-0.0116408
199	0x3c4c9040	0.012485564
200	0x3c149aba	0.009070093
201	0xbc12796b	-0.008940081
202	0x3be97b80	0.007125318
203	0xbc4594a2	-0.012059363
204	0xbb884fd4	-0.004159907
205	0xbc2fd8fd	-0.010732886
206	0x3c316de4	0.010829423
207	0xbb53114c	-0.0032206355
208	0xbc12053a	-0.008912379
209	0xbaac34b0	-0.0013138261
210	0x3c28d746	0.010305231
211	0x38f59100	0.00011709519
212	0xbaf3d8e8	-0.0018604072
213	0x3b8b9a50	0.004260339
214	0x3c133faa	0.008987347
215	0xbc30ad35	-0.010783483
216	0xbac13c60	-0.0014742725
217	0xbc1feb62	-0.0097607095
218	0x3bcde3d4	0.0062832627
219	0xbb800312	-0.003906616
220	0xba18d450	-0.0005829977
221	0xbbb8d6be	-0.0056408336
222	0x3bd64640	0.006539136
223	0xbb920094	-0.0044556353
224	0xbb0517e8	-0.0020308439
225	0x39d87880	0.0004128851
226	0xbc04d40c	-0.008107197
227	0x3c1c2c4e	0.009532047
228	0xbc0acc70	-0.008471593
229	0xbb5ee50c	-0.0034011034
230	0xbbdecbc7	-0.0067991945
231	0x3c0e4366	0.008683061
232	0x3c157f04	0.009124521
233	0x3c25db8c	0.010123145
234	0xbaa24a28	-0.001238172
235	0xbc0f2586	-0.008736974
236	0x3bfe7778	0.0077657066
237	0xbbfb1e93	-0.007663557
238	0x3c42dd1e	0.011893539
239	0x3a913f00	0.0011081398
240	0xbbdb3926	-0.0066901622
241	0xbb503aa0	-0.0031773224
242	0x3bd7ffd0	0.0065917745
243	0x3c10634c	0.008812737
244	0xbc296bed	-0.010340673
245	0x3b61aa88	0.003443392
246	0x3c1a5180	0.009418845
247	0x3bcfcd5c	0.0063416194
248	0xbc57b4f9	-0.013165706
249	0xbbaf4832	-0.0053491825
250	0xb7bc1400	-2.242066e-05
251	0xbbe45d90	-0.0069691613
252	0x3c2e9a14	0.010656852
253	0xbaaa72e8	-0.0013004215
254	0x3bc4a554	0.006001154
255	0x3c1a4a4c	0.009417128

bias f4 [32]
0	0x39f08d11	0.0004588147
1	0xbbede785	-0.0072602653
2	0xbbcdb835	-0.0062780627
3	0xbc5a196c	-0.013311725
4	0x3adbb21d	0.0016761456
5	0x3bbc6547	0.005749378
6	0xbc549c72	-0.012976753
7	0x3bdcb691	0.006735631
8	0x3ba40438	0.0050053857
9	0x3a9ac0e6	0.0011806756
10	0xbb1a77d0	-0.002356995
11	0xbb650a3f	-0.0034948734
12	0xbbe86d8e	-0.007093138
13	0x3c23621e	0.009972123
14	0x3c5d2f93	0.013500112
15	0xbb7c95ce	-0.003854144
16	0x39bbf90d	0.00035852977
17	0xbbaff803	-0.0053701415
18	0xbaa20288	-0.0012360374
19	0x3b4e6f0b	0.0031499292
20	0xbb0c6be4	-0.0021426613
21	0xb9e7d61c	-0.00044219277
22	0x3b566656	0.0032714806
23	0x3b2fd698	0.0026830789
24	0x39bc07c0	0.00035863928
25	0xbb939d69	-0.0045048487
26	0xbc09d070	-0.008411512
27	0x3c2b80c2	0.01046771
28	0x3aac1f92	0.0013131967
29	0x3c0c6c6b	0.008570771
30	0x3ac4ad1b	0.0015005203
31	0xbbb52169	-0.0055276644

weight f4 [2, 32]
0	0x3c6b8d56	0.014376959
1	0x3dec30e9	0.11532766
2	0xbe09f29a	-0.13471451
3	0xbd81ec29	-0.06343872
4	0x3da5e018	0.08099383
5	0xbe1bf59f	-0.15230416
6	0x3d7612e6	0.060076617
7	0x3dcf962b	0.10136064
8	0x3d660d64	0.056165114
9	0x3e0fb943	0.14035515
10	0xbe1f2658	-0.1554197
11	0xbd271f96	-0.040801607
12	0x3d723a70	0.05913776
13	0x3d629c24	0.05532469
14	0xbe1d2e78	-0.15349758
15	0x3becee19	0.007230532
16	0x3e07e328	0.13270247
17	0xbd3fa311	-0.04678637
18	0x3bb03341	0.0053772037
19	0x3e26e81c	0.1629948
20	0xbb8bc880	-0.004265845
21	0xbde8486d	-0.11341939
22	0x3e289051	0.16461302
23	0x3d8e0be0	0.06935859
24	0x3e2c1449	0.16804613
25	0xbca1596d	-0.019695962
26	0x3c12b83e	0.00895506
27	0xbd40a300	-0.04703045
28	0xbe072706	-0.1319848
29	0x3daebafd	0.08531759
30	0x3d6db127	0.058030274
31	0x3d922ed9	0.07137842
32	0xbd8028a8	-0.062577546
33	0xbe16f752	-0.14742783
34	0x3d90a611	0.07062925
35	0x3df51298	0.11966437
36	0x3d81d488	0.06339365
37	0x3d99e0dc	0.07513592
38	0xbcbdc3a2	-0.023164574
39	0xbb2d7102	-0.0026465063
40	0x3e2437c1	0.16036893
41	0x3c523fd2	0.012832599
42	0x3deed3ee	0.11661516
43	0xbe0907db	-0.13381903
44	0x3e1dff4d	0.15429421
45	0x3dc21c1e	0.09478019
46	0xbd679927	-0.05654254
47	0x3e1276e0	0.1430316
48	0x3d217f10	0.039427817
49	0xbe337add	-0.17527337
50	0x3de85f5c	0.11346313
51	0x3d2cccad	0.04218738
52	0xbdd0e50a	-0.10199936
53	0x3ddd2cb7	0.10799544
54	0xbe0d4fa6	-0.13799915
55	0x3d8c7308	0.06857878
56	0x3d6ac448	0.057316095
57	0xbc513378	-0.012768619
58	0x3e02560d	0.12728138
59	0x3b1bde80	0.0023783743
60	0xbe0d4dc4	-0.13799196
61	0x3e020ad5	0.12699445
62	0xbd18fbeb	-0.037349623
63	0x3e31436a	0.17310873

bias f4 [2]
0	0xbd63fe53	-0.055662464
1	0x3d741f49	0.05960015
